Assets/ONNX/GridSensorAgent.onnx (onnx, 876666 bytes, 12 tensors)

network_body.observation_encoder.processors.0.conv_layers.0.weight f4 [16, 2, 8, 8]
000000 93 95 1d 3c 91 0e f0 bc 00 ea ec 3d dd 27 51 3d
       0.009618181 -0.02930382 0.115680695 0.051063407
000010 dd 7e 62 3d b4 69 78 bd 81 e8 ee 3c 2e d9 3c 3d
       0.055296768 -0.06064768 0.0291636 0.046105556
000020 66 7b 88 bd c8 10 57 3d e7 de b3 bc 4c 12 44 3d
       -0.066641614 0.05250624 -0.021956874 0.04786901
000030 f4 a7 14 3d 93 76 84 bd 28 62 5f bd e3 7c d3 3a
       0.036292985 -0.06467929 -0.05453697 0.0016135242
000040 11 17 b6 3c 45 23 ae bc 8c 9d f2 3c b9 94 01 3e
       0.022227796 -0.021257052 0.02961614 0.1265439
000050 46 f0 7a 3c 71 4a 95 3d 33 1e 58 3d b0 57 4d bd
       0.015316075 0.07289589 0.052763175 -0.050132453
000060 86 93 ec 3d d1 c9 97 bc d0 a7 af 3d 5a 6e e2 3a
       0.11551575 -0.01852885 0.085769296 0.0017275319
000070 3d 55 e4 3d f4 92 2b bd 32 a2 4e 3d 81 9a 6b bd
       0.111490704 -0.041888192 0.05044765 -0.057520393
000080 98 b3 46 bb f1 05 9e 3c 64 77 cb 3d 40 fb 74 bd
       -0.0030319449 0.019289942 0.09934881 -0.059809923
000090 b2 2c 59 bd bd f8 88 bd 8b 16 c0 bb 66 ed 8f bd
       -0.05302114 -0.06688068 -0.0058620623 -0.07027702
0000a0 02 db 7e 3d fb b9 a2 3d cc b4 c1 3c 77 8c 83 bd
       0.06222058 0.07945629 0.023645781 -0.06423276
0000b0 dc 34 51 3d c8 64 a0 bd 4b 77 bb 3d 3c b6 42 3c
       0.0510758 -0.078317225 0.09153613 0.011884268
0000c0 dd 16 82 3c b6 96 de bc b2 9b bb bd 8e 3b 50 bd
       0.015880043 -0.027171474 -0.09160556 -0.050838046
0000d0 81 9b 9a bc 72 b1 eb 3c 76 0e 3d bd 6e 75 6d bc
       -0.018872978 0.028771136 -0.04615637 -0.014493329
0000e0 61 39 ad 3c fc 1c b4 3d 7d 59 83 3d 75 ef a0 3d
       0.021145524 0.08794591 0.06413553 0.07858173
0000f0 9b 28 54 bd 9c b1 37 bd a9 74 86 3d 3e fb 3c bd
       -0.051796537 -0.044847116 0.0656522 -0.04613804
000100 1e 40 c6 3d 75 34 19 bd 83 a2 38 3d 57 8c 47 bc
       0.09680198 -0.037403543 0.04507686 -0.012179456
000110 f5 08 d5 bc f9 f1 e4 bc 42 c3 7c bb 32 bd 01 bd
       -0.026005248 -0.027947413 -0.003856853 -0.03167457
000120 12 0a 87 3c 7c 9d 97 bd 8c 13 58 3d 7b 89 c6 3c
       0.016484294 -0.07403085 0.052753016 0.024235478
000130 94 71 af 3d 5b a1 80 3d 29 f9 24 3d 5f 5d ab 3d
       0.08566585 0.06280776 0.04027668 0.083674185
000140 ba 48 1a 3d ef 37 c7 bd 61 19 d0 3c 73 d9 9e bc
       0.037667014 -0.09727465 0.025402727 -0.019390797
000150 38 6d 35 bd 96 4e 65 bd 0b d3 30 bd af 7b a5 3d
       -0.044293612 -0.05598315 -0.043170016 0.080802314
000160 c2 6a 8a 3d 65 75 31 bd 46 49 89 3d 1e 53 85 bd
       0.06758644 -0.043324847 0.06703429 -0.06509994
000170 43 6f 73 bc b1 2b 91 bd 31 78 8f 3d d8 eb 41 bd
       -0.01485807 -0.070884116 0.070053466 -0.04734406
000180 3c 02 90 bd 92 d8 af bc 42 68 28 bd ee 17 72 3d
       -0.07031676 -0.021465573 -0.041115053 0.059104852
000190 78 74 34 3d 55 3a 07 bb cb 0c 7a bd a4 57 85 bc
       0.044056386 -0.0020634134 -0.061047357 -0.016277142
0001a0 8d 3e a8 bd b0 2c b1 bd ab 46 b3 3d 5c fa 0e bc
       -0.082150556 -0.086511016 0.08753713 -0.0087266825
0001b0 05 10 ef bd e0 c0 e9 bd b1 61 ca bc cb 89 c4 3d
       -0.11672977 -0.11413741 -0.024704786 0.095965944
0001c0 a7 ef 61 bc f9 94 fd bc a5 12 62 bd e0 d2 4e 3d
       -0.013790048 -0.030954825 -0.055193562 0.050494075
0001d0 b4 b3 ce bd 12 ba d0 bd c8 6c ab bd 88 94 81 bd
       -0.100928694 -0.1019174 -0.08370358 -0.06327158
0001e0 5d 8b 6e ba 60 cd b3 bd 52 67 5d 3c 8e 5a e6 bd
       -0.0009099746 -0.087794065 0.013513403 -0.11247741
0001f0 92 e8 41 bd 08 ca a3 3d 38 6a 7e bd e6 38 97 bb
       -0.047340937 0.07997519 -0.062113017 -0.004614937
000200 88 c0 58 bd aa fe 88 3d f2 c8 0c bc b9 6f e5 bb
       -0.052917987 0.06689198 -0.008592831 -0.007001844
000210 f4 50 20 3b 66 dd de 3c 20 b4 98 3d 21 51 6f bd
       0.0024462314 0.02720518 0.07456231 -0.05842698
000220 86 62 fb bc bd 90 bd 3d bb 9a bd 3c 9e d8 8c bd
       -0.030686628 0.09256122 0.02314507 -0.06877254
000230 2b 57 b2 bd 10 5c fd 3c 11 49 a4 3c bd 7b c5 bc
       -0.08708032 0.030927688 0.020054372 -0.024106855
000240 a1 38 38 3c a8 3c 2f bb e6 e4 8e bd 6a d7 78 bd
       0.01124397 -0.0026739035 -0.06977253 -0.06075231
000250 50 7f 43 bc ee 27 8c bd 9a b6 9c bd 16 7e 9b bc
       -0.011932209 -0.068435535 -0.07652016 -0.01898102
000260 d4 ed af 3d 73 5f 5c 3d 67 ce 9e bd 99 a9 ba 3b
       0.08590284 0.053801965 -0.07754212 0.005696487
000270 4a 5e e8 ba 6b 78 76 bd e1 ac 0a 3b fc fb bd bd
       -0.0017728296 -0.060173433 0.0021160173 -0.09276578
000280 9c ef b4 bd c2 22 34 bd b7 2a 85 bd 46 fe b1 bd
       -0.08834764 -0.04397846 -0.06502288 -0.08691077
000290 46 29 ad 3d b1 e0 c1 3c 53 b6 60 3b d3 0a 27 bd
       0.08455138 0.023666712 0.0034288361 -0.040781807
0002a0 2b 2d df 3d 58 19 a2 3d 37 36 9a 3d 64 51 6f 3d
       0.10897287 0.0791499 0.07529872 0.05842723
0002b0 b4 6e 33 bd 45 e6 2f bd ac 33 a7 3d db 51 11 bb
       -0.043806747 -0.04294421 0.081641525 -0.0022174034
0002c0 fc 86 ac 3d e9 69 43 3d 61 d7 ad bd 39 a6 87 bc
       0.08424184 0.047708426 -0.08488346 -0.016558753
0002d0 13 3e cf bd 4b b7 32 bd a9 99 c0 3c 38 e2 97 bc
       -0.101192616 -0.043631833 0.02351077 -0.018540487
0002e0 6d 44 cd bc f2 ae ad 3d 8e b8 4f bd a4 91 ea 3a
       -0.025057042 0.08480634 -0.050713114 0.0017896187
0002f0 33 b6 40 bd 35 01 92 3d 64 d8 70 3d 94 73 8c 3d
       -0.04704876 0.071291365 0.058800116 0.06857982
000300 d0 0c 8c 3d f1 7f 71 3d ea 95 80 3d 09 05 d9 3c
       0.06838381 0.058959905 0.06278594 0.026491659
000310 23 29 1c 3d 0b c2 b7 3c 19 14 cf 3b 26 03 89 3d
       0.03812517 0.022431394 0.0063195345 0.06690054
000320 4a a5 30 bd 92 c1 99 3c 5b e9 48 3c 3c 29 6f 3d
       -0.043126382 0.01876906 0.0122626675 0.058388934
000330 c7 98 08 3d 5f d9 8f bd cb 38 5c 3d 4e 81 00 bd
       0.033348825 -0.07023882 0.0537651 -0.031373315
000340 60 1f 09 bd af a9 b8 3d 5e 7d b9 3d 2a ca 4f bd
       -0.033477187 0.090167396 0.09057115 -0.050729908
000350 45 d9 a9 3d 2a 6d 05 bd 88 af 18 bd d6 0d 62 bc
       0.08293394 -0.03257481 -0.037276775 -0.013797244
000360 75 2d 12 3d 78 3a 48 3c 27 ae 99 3d 89 a7 49 bd
       0.035687882 0.012220971 0.0750392 -0.04923204
000370 4d 7a 7c bd e3 5b 97 3d b8 7c 56 3d 12 e0 00 3d
       -0.061640073 0.07390573 0.052365035 0.03146369
000380 71 6b 0f bd 51 56 50 3d 3a f1 2a 3d 84 48 11 3d
       -0.035014573 0.050863568 0.041733958 0.035469547
000390 4c 7b c9 bd 86 f4 95 bd bf 51 99 bd f9 7a 80 3d
       -0.0983797 -0.0732203 -0.07486295 0.06273455
0003a0 4c 2e c1 3c ee 76 74 3c 81 eb a6 bd f2 03 1f bd
       0.023581646 0.014920933 -0.081503876 -0.038822122
0003b0 3a f2 56 3d b5 36 74 bd 7e b2 ac 3d 0f d2 b8 3c
       0.0524771 -0.059622485 0.08432482 0.022561101
0003c0 b9 e2 3a bd ad 67 12 bd b2 88 df bd 31 c8 af bd
       -0.045626376 -0.035743404 -0.109147444 -0.08583105
0003d0 35 46 a7 3c 4e 57 11 bd e7 18 73 bd 0a 0b 7a 3d
       0.02041922 -0.03548365 -0.05934992 0.061045684
0003e0 de 1b 44 3d f3 c1 72 bd df 0b ae 3c 98 c9 93 bd
       0.04787814 -0.059266996 0.021245895 -0.07216185
0003f0 d9 44 51 bd c2 31 97 bd b7 7a b4 3c 3e 53 a5 bd
       -0.05109105 -0.073825374 0.022031171 -0.08072518

network_body.observation_encoder.processors.0.conv_layers.0.bias f4 [16]
000000 8c 5e 2d 3d e7 c4 5f bd 38 a9 98 3d 9b 6a 8c 3a
       0.042326495 -0.05463114 0.07454151 0.0010712923
000010 a5 7b 8b 3d ef 57 56 3c 2c 4d 8c 3a fa 9f 4a bd
       0.06810693 0.013082488 0.0010704151 -0.04946897
000020 fd c3 54 3d 01 6f 4e bc a6 ba 81 3d 98 07 32 bb
       0.05194472 -0.012599708 0.063344285 -0.002716517
000030 a9 12 ce bc 65 d3 d9 3a ae 51 ab 3b f2 88 d9 bc
       -0.025155382 0.0016618787 0.005228243 -0.026554558

network_body.observation_encoder.processors.0.conv_layers.2.weight f4 [32, 16, 4, 4]
000000 f4 f7 63 3d bd c9 64 3b 84 1b e4 bc 27 fb 0d bd
       0.05565639 0.0034910284 -0.027845152 -0.034663346
000010 e9 6e 8b ba 0b b9 1c bc df 57 57 3d 88 41 44 bc
       -0.0010637912 -0.009565602 0.052574035 -0.0119785145
000020 20 91 0a bd e9 a5 27 3b 10 ee 0d bd ce 90 59 bd
       -0.03382981 0.0025581068 -0.034650862 -0.053116612
000030 37 cd 1f 3d 00 2f 38 b9 cd db 30 3d 32 ad f5 bc
       0.039014068 -0.00017565116 0.04317837 -0.029989813
000040 89 22 84 3d 82 55 de 3c 06 8b 06 bc cf ef 67 3c
       0.064518996 0.027140383 -0.008211857 0.014156296
000050 90 a4 83 39 30 a6 aa 3c 6e 3b b7 3b e8 a4 86 3d
       0.00025108876 0.020831198 0.0055918014 0.06574422
000060 53 fd 7c 3c 5b 85 81 bd 3c b5 61 bc 6c 85 46 3d
       0.015441257 -0.06324264 -0.01377612 0.048467085
000070 b9 0c 54 bc 67 0e 4b bc 71 86 4d 3c bf d6 16 bd
       -0.012942486 -0.0123935705 0.01254426 -0.03682589
000080 00 eb e2 3c b0 63 63 3c 42 48 89 3a 6c d8 35 bd
       0.027699947 0.013878748 0.0010473805 -0.04439585
000090 41 ee bf bb b9 42 c3 bc bf fd 7c bd 8c 04 ed 3c
       -0.0058572595 -0.023835527 -0.06176543 0.028932832
0000a0 60 49 59 3d fe c3 ec bc 46 d9 44 3d dc b7 72 bd
       0.05304849 -0.02890205 0.04805877 -0.059257373
0000b0 0a 68 7c bd 9c cb 25 3d c5 0a 7c bc d6 6d ff 3b
       -0.061622657 0.04047738 -0.015383427 0.007795076
0000c0 63 98 3a bd b2 df 54 bc 3d 83 2e bd d8 2d 23 bd
       -0.045555484 -0.012992786 -0.042605627 -0.039838642
0000d0 6b 67 1d bc 3a ff 85 3b 78 7d f9 3c e0 c0 02 3d
       -0.009607176 0.0040892633 0.030455336 0.03192222
0000e0 1f 7b 3c 3d 4d 6d c9 bc 3e 1e 38 bd a2 cc c6 bc
       0.046015855 -0.024588251 -0.044950716 -0.024267498
0000f0 67 9b 29 3d bd a0 78 3c 3c b9 84 3c 18 8a 2e 3c
       0.04140797 0.015175042 0.016201608 0.010653041
000100 a0 ea 30 3d 0e e0 9d bc 5c 24 f2 bc e4 31 e9 bc
       0.043192506 -0.019271877 -0.029558353 -0.028466173
000110 3f 52 e4 3c e8 72 83 bd 3f 81 04 bb 0b d0 26 3d
       0.02787125 -0.06418401 -0.0020218638 0.04072575
000120 5b 37 e2 bc 45 c9 b3 bc 61 2e 3e bd b9 39 a4 3c
       -0.027614286 -0.021946559 -0.04643095 0.020047056
000130 d1 8b 0a bd fd 12 05 bd b8 88 57 3c 8a 8b dd b9
       -0.033824746 -0.03248881 0.013155155 -0.0004225637
000140 63 fb 5e bc 51 6f fc 3c 56 9e 7b 3d b1 63 80 bd
       -0.01360974 0.030814799 0.061430298 -0.062690146
000150 7b 79 40 bc ef 3d 08 3d 64 9f 20 bc 84 50 48 3c
       -0.011747713 0.03326219 -0.009803627 0.012226228
000160 a6 0b 3b bd c4 3a 22 3b ce 31 21 3c 80 a1 5b 3c
       -0.045665406 0.0024754265 0.0098385345 0.013405204
000170 38 d9 0d bd 26 08 bf bc 4b f4 08 3d 6a 79 70 3d
       -0.034630984 -0.023319315 0.0334361 0.05870954
000180 c1 ae 01 3d cb 61 86 bc a4 3e 39 3a 32 55 9a 3d
       0.0316608 -0.016404053 0.0007066524 0.07535781
000190 97 3c 8d bd 09 09 4d bc 72 fd 21 3d f7 45 0e bd
       -0.06896322 -0.012514361 0.039548345 -0.034734692
0001a0 aa f9 a6 3c 6b 3f 99 bc 8f a7 17 bd 18 3f 80 3d
       0.020382721 -0.018706998 -0.03702503 0.06262034
0001b0 4f 70 c8 3c 41 4c ae bc e6 8a e1 3c cf 96 5b bc
       0.024467615 -0.021276595 0.027532052 -0.013402655
0001c0 6f 63 45 3c a9 8a dd 3c 61 38 56 bd 21 88 39 3d
       0.012047633 0.027043657 -0.05229986 0.04529584
0001d0 27 9b 29 3d f2 82 af 3b 04 b1 45 3d c1 0f 4a bc
       0.04140773 0.005356186 0.04826452 -0.012332858
0001e0 5d 51 a6 bb 9f 46 33 bc 50 b1 bc 3c 35 b3 13 3d
       -0.005075617 -0.01094213 0.023033768 0.036059577
0001f0 16 b9 4b 3d 7f 29 55 3d a3 29 97 bc 52 8a b9 3c
       0.04973706 0.052041527 -0.018452471 0.022648964
000200 58 2a 7a 3d cd 5e bc bc 68 df 22 bd 0c 87 f8 bc
       0.06107554 -0.022994423 -0.039763838 -0.030337833
000210 cd c0 64 bd b2 6b 05 3c 53 08 5d 3d 5d d7 e0 bb
       -0.05584793 0.008143352 0.053963017 -0.006861611
000220 c0 55 4e 3b 4b cf 01 3d 30 5b 5d bd 30 af 0a bc
       0.0031484216 0.03169183 -0.05404204 -0.0084646195
000230 b7 2e 24 3d 25 90 6f 3d a2 28 8c 3c 90 56 55 3d
       0.040083613 0.058487076 0.017109219 0.052084506
000240 9a a3 80 3d c5 77 ed 3c c9 a8 8d bc 81 58 1f bd
       0.062812045 0.028987775 -0.017292397 -0.038902763
000250 ca e6 63 3d 5d 5e 53 bd 6b ca 36 3d 1e 08 7d bc
       0.05564002 -0.051603664 0.044626635 -0.01544383
000260 9f e3 86 3d 5c f1 b6 bc 50 a9 30 3d 11 04 6f 3d
       0.06586384 -0.022331886 0.04313022 0.058353487
000270 ad d0 64 3d 4f a8 3b bc cf 62 9c bc 3f 1a ec 3a
       0.05586307 -0.011453702 -0.019090084 0.0018013193
000280 3f e4 ff bc 8e 14 88 3d 99 c7 8d 3d ab f7 aa bb
       -0.031236766 0.066445455 0.06922836 -0.0052175126
000290 b4 fd 83 bb 7b f1 fc bc 54 26 43 3d 19 21 e2 3b
       -0.0040280465 -0.030876866 0.047643974 0.006900918
0002a0 1c c7 70 bc 0f 3a 46 3d a9 c5 65 3d c8 d4 83 bd
       -0.014695909 0.048395213 0.056096707 -0.06437069
0002b0 df 0d 83 3d 54 04 aa 3c 2f 0b 27 3d a4 6d 7b 3d
       0.0639913 0.020754017 0.04078215 0.06138386
0002c0 64 95 60 3d 6c 1d 06 bd a7 cb 7c 3d 70 0c 89 bc
       0.05482997 -0.032742903 0.061717656 -0.016729563
0002d0 51 be 7e 3d bf e9 74 3d 81 96 69 3d ad 34 0f 3b
       0.06219322 0.05979323 0.057028297 0.0021851466
0002e0 b1 b6 83 3d 3b 7e 8a 3d ed 4a 6f 3d 0d b1 10 3d
       0.0643133 0.06762358 0.058421064 0.0353251
0002f0 bb fc c4 3c 91 e6 39 3d 1e 7a 9a bc a8 9d f3 bc
       0.024046293 0.0453859 -0.018857058 -0.029738262
000300 c6 cf 20 bd 41 5d 2f bd 74 58 aa 3b fa 7a ab bd
       -0.03926065 -0.042813543 0.0051985327 -0.08373065
000310 4d 61 47 bd 1e 6f 0b 3d b7 ff 19 3d ea d4 30 bb
       -0.048676778 0.034041516 0.037597384 -0.0026982375
000320 b1 22 2b bc e8 f2 6c 3d 8f 0f b1 3c cb e9 cd 3c
       -0.010445283 0.05784884 0.021613864 0.025135895
000330 e8 b5 77 3d 3a cc ab ba ab b1 11 bc b8 fe 81 3d
       0.060476214 -0.0013107129 -0.008892457 0.06347412
000340 71 a2 55 3d e9 5a 8d ba f6 54 42 3a 9a 6c 3a bd
       0.05215687 -0.001078454 0.0007413173 -0.045513727
000350 9e 78 91 3d ac f5 44 3d e9 b8 55 bd 34 69 d9 bc
       0.07103084 0.048085853 -0.052178297 -0.026539423
000360 04 65 69 bc 05 46 95 b9 9b a0 75 3d a7 97 85 bd
       -0.014245275 -0.00028471663 0.05996762 -0.06523066
000370 4e c5 4b bd 59 01 01 bc 42 6a 11 3d ca d6 a1 3c
       -0.04974871 -0.007873856 0.035501726 0.01975574
000380 de 59 92 3c e1 4f 0e bd 52 04 1d 3d e3 21 8a 3d
       0.017865118 -0.034744147 0.0383342 0.06744745
000390 e1 b3 73 bc 7b 25 ef bb 73 e1 c6 3b 72 37 2f bd
       -0.014874429 -0.007298169 0.006069356 -0.042777486
0003a0 94 53 0f bd 81 3c 1a 3c 24 d6 4e 3d 6c da b3 3c
       -0.034991816 0.009413839 0.05049719 0.021954738
0003b0 df b4 e1 bc 2a 1d ae 3c 74 25 9e bb 06 74 bc 3b
       -0.027552066 0.02125414 -0.004826242 0.0057511358
0003c0 cd 44 8a 3d 1e 12 35 bb ec 8d 28 3d a4 7b 24 3d
       0.06751404 -0.0027629207 0.041150972 0.040156975
0003d0 7c 43 fb bb 49 05 28 3d 6a b7 ef ba d1 db 62 3d
       -0.007667957 0.041020665 -0.0018288915 0.055385415
0003e0 17 7e 86 bc 54 5d 0c 3d be b6 6c 3d 94 66 4b 3d
       -0.016417546 0.034268692 0.057791464 0.049658373
0003f0 67 a2 a5 ba 51 6d 03 3d ed 19 1d bd e2 a6 bd 3c
       -0.0012636901 0.032086674 -0.038354803 0.023150865

network_body.observation_encoder.processors.0.conv_layers.2.bias f4 [32]
000000 dd 0c 32 3d e1 14 21 3d 46 0f 8a 3a 67 82 20 3c
       0.0434693 0.039326552 0.0010533116 0.009796715
000010 1a 19 0b 3d 86 31 14 3d b0 c1 3c 3d 83 aa ec 3a
       0.033959486 0.03618004 0.046083152 0.0018056188
000020 aa 16 aa 3c 52 0a 19 3c 8f 1e d2 bc 29 69 fe 3c
       0.02076276 0.009340839 -0.025649337 0.031056004
000030 2e b7 c5 bc 1e ae c3 bc 2a c5 56 3c a7 b9 10 bc
       -0.024135198 -0.023886736 0.013108531 -0.0088333255
000040 62 c3 0f bd 0d cd 2e bc 09 57 9e bc ea 04 07 bd
       -0.03509844 -0.010669005 -0.019328611 -0.03296367
000050 8d cb 45 3d cc 30 05 bc 83 ea 1f bd f4 7b da 3c
       0.048289824 -0.00812931 -0.039042007 0.026670434
000060 33 c1 44 3d 32 cf ab bc be 20 0d 3c 5c af 42 3b
       0.04803581 -0.020972822 0.008613763 0.0029706573
000070 8e a8 14 bd be fc 99 3d 94 b5 54 3c 20 73 10 bd
       -0.03629356 0.0751891 0.012982745 -0.03526604

network_body.observation_encoder.processors.0.dense.0.weight f4 [256, 288]
000000 8a 63 a7 bc 93 32 17 be 50 e8 9e 3d a0 4d f1 3c
       -0.020433206 -0.14765386 0.07759154 0.02945596
000010 42 b7 f5 3c c4 70 18 3e fc ee 0b 3d 84 fe e5 3d
       0.02999461 0.14886767 0.03416346 0.11230186
000020 46 a6 6e bd 3e 94 9e bd 50 8c 39 be 4a 35 1f bc
       -0.05826404 -0.07743119 -0.18119931 -0.009717295
000030 57 79 38 3d d4 58 36 3c 77 aa e9 bc 4e 97 be bd
       0.045037594 0.011129577 -0.028523667 -0.09306203
000040 dd 57 12 3d 65 ec 2e bd 4b 85 3c 3d 8f 64 88 bd
       0.035728324 -0.042705912 0.046025556 -0.06659805
000050 ce 1d 7e 3d dd df 17 3e ea d9 3b bc 8f af 54 3d
       0.062040143 0.14831491 -0.011465529 0.05192524
000060 dc d4 eb bd 02 ba c9 3d ad 3f a4 3d 14 e0 b4 3d
       -0.11515209 0.09849931 0.08019958 0.08831802
000070 a3 01 0d 3c ea 85 bb bd 25 cb 3e bd 18 9c 53 bd
       0.008606347 -0.091564015 -0.046580452 -0.051662534
000080 b6 f3 54 3b 68 d3 05 be 80 81 37 3c ed c1 a8 3d
       0.0032493896 -0.13068926 0.011200309 0.082401134
000090 6d a2 9f 3d 83 b2 05 be cd 8b 8e 3c 6f 0a 3c bb
       0.07794652 -0.13056378 0.017400647 -0.0028692742
0000a0 2a b5 84 bd fa 74 a3 bd 58 3b 04 3c f1 f2 a2 3c
       -0.06479867 -0.07981296 0.008070789 0.019891234
0000b0 2a 6e c6 3d 94 23 06 bd dc c3 fd ba ce 27 05 3e
       0.09688981 -0.032748774 -0.0019360739 0.13003466
0000c0 87 f4 a2 3d 31 7b f2 bd ff a2 c2 3d 96 24 08 3e
       0.07956796 -0.11839903 0.09503745 0.13295206
0000d0 76 10 f1 bc 45 62 8a bd f2 75 7a bd 67 84 d5 bc
       -0.029426794 -0.06757025 -0.061147638 -0.02606411
0000e0 ed ca aa bc 2f ae c0 3b 93 72 4d bd 32 aa 97 3d
       -0.020848716 0.0058801393 -0.050158095 0.07405509
0000f0 05 e5 1c bd f0 ad 9d 3d 0d ab 93 bd 7f ec ea bd
       -0.038304348 0.076991916 -0.0721036 -0.11470889
000100 8e bd d3 bc cc 44 9e 3d d6 8b d3 3d a4 66 17 be
       -0.025847223 0.07727966 0.10329406 -0.14785248
000110 9a da cc bd 09 29 ed bc 05 28 df bc a5 c4 c8 3d
       -0.100026324 -0.028950231 -0.027240762 0.09803132
000120 0c 4b f0 3d 95 f7 65 3c d4 0a bf bd 2c 06 19 3e
       0.11733064 0.014036079 -0.09328237 0.1494376
000130 cc 9d 51 3e 44 e8 37 3d 00 d5 63 bd ef 34 b6 3b
       0.20470351 0.04489924 -0.055623055 0.0055605094
000140 fe b3 22 be 99 2f db bb 34 d0 05 3d 50 f7 77 3d
       -0.15888974 -0.0066890237 0.03266926 0.06053859
000150 1e 14 0f be 08 6a 37 bd f6 48 56 3d 01 b3 d3 3d
       -0.13972518 -0.044778854 0.052315675 0.10336877
000160 2f 4e 5c 3c 1f ce d7 3c 4c 35 23 bd 78 7e 32 bd
       0.013446375 0.026343403 -0.03984575 -0.04357764
000170 d5 d3 3c 3d 61 73 be 3d bb 26 6a 3d 3d 24 48 3d
       0.046100456 0.092993505 0.057165843 0.048862685
000180 55 db 35 bd 71 f3 0d be 76 42 f5 bd 81 17 f4 bc
       -0.044398624 -0.13862397 -0.11975567 -0.029796364
000190 74 49 4c 3d 4a 36 02 bd f9 7e 67 bd 47 77 0e bd
       0.049874738 -0.031790055 -0.056517575 -0.03478172
0001a0 d9 04 12 bd fb 39 c2 bd b0 2a fc bb 4c 0a cc 3d
       -0.035649154 -0.09483715 -0.0076955184 0.099629015
0001b0 3a 12 e9 3b c5 f8 96 bb e7 6d b8 3d 4a 8c 24 3d
       0.0071127685 -0.0046072924 0.09005337 0.040172853
0001c0 18 23 b7 3c ea 9d e4 bc b5 0b 7f 3d d9 db db 3d
       0.022355601 -0.02790733 0.062267024 0.10735292
0001d0 30 f9 17 3e 61 7e 30 be e6 d6 be bd 71 6b 83 3d
       0.14841151 -0.1723571 -0.093183324 0.06416977
0001e0 3b 93 32 be 2c 5d ad bc ae 54 5c 3b b7 5d 3b 3c
       -0.17438976 -0.021162592 0.003361981 0.011435918
0001f0 9a 8c 86 bd 0d 2e 5b bd 5e 42 61 3d 42 11 89 3b
       -0.06569786 -0.053510714 0.054994933 0.0041829655
000200 d6 a0 8a bd df 15 9e bc 0c 40 a3 bd ad 90 97 3d
       -0.06768958 -0.019297538 -0.079712 0.074006416
000210 61 97 5c 3d 7e 01 c7 3d d9 a2 02 be 73 8b 8c bc
       0.053855304 0.097170815 -0.12757434 -0.017156338
000220 58 a3 f9 bc 94 be 6c 3e 49 9c 8d 3d 23 95 48 3d
       -0.030473396 0.23119575 0.06914575 0.048970353
000230 74 d2 52 3d c5 0c 82 3a f5 9f 8a bd f9 48 15 3e
       0.051470235 0.0009922019 -0.06768791 0.14578618
000240 e4 7e 98 bd 3e 73 88 3d 32 b0 00 3e 67 d1 51 3d
       -0.074460775 0.06662606 0.12567213 0.051225092
000250 1c 3a 6e 3c 7f 87 ff 3d e7 13 6c 3d 14 77 cb 3b
       0.014540222 0.12477016 0.057636168 0.0062092636
000260 35 84 8b 3c 67 35 9c 3d df c8 e7 bd 99 d0 f0 bd
       0.017030815 0.07627373 -0.1131761 -0.11758537
000270 6c a0 90 3b 86 9d 47 bc e0 29 bc 3c 16 20 f4 bd
       0.004413655 -0.012183553 0.022969186 -0.119201824
000280 e6 58 60 3d ea 3e ed 3d 72 da 0c bd 91 88 39 3d
       0.05477228 0.115842655 -0.034388013 0.045296255
000290 c9 1e df 3d ce 48 d3 3d c8 e9 aa bd 02 32 ae bd
       0.10894544 0.10316621 -0.083453715 -0.08505632
0002a0 f0 30 b7 bd e8 b2 4a 39 63 e0 80 3d 7d 8f 04 be
       -0.08944881 0.00019330869 0.06292798 -0.12945361
0002b0 b6 cd 81 bc 09 68 be bd 30 29 c9 3d 72 dc 31 3d
       -0.015845161 -0.09297187 0.09822309 0.043423124
0002c0 10 02 e2 bd a1 e8 75 3d e1 39 ca 3c eb c5 24 be
       -0.1103555 0.060036305 0.024685802 -0.16091125
0002d0 20 37 23 be 5a 31 df 3c b3 7d 18 3c 94 8f f1 bd
       -0.15938997 0.027245212 0.009307313 -0.117949635
0002e0 40 7d 5e 3d 87 60 a7 3d a4 c2 03 bd 55 f6 a1 bd
       0.054318666 0.08172708 -0.032168046 -0.07908312
0002f0 9b 9e 0f 3e 47 38 a2 bc 13 fe 9c bd ff 2f 0e be
       0.14025347 -0.019802226 -0.07665648 -0.13885497
000300 69 cf 12 3d ce f4 27 3e 98 c9 96 3c 25 f9 ca bb
       0.035842333 0.1640198 0.018406674 -0.006194251
000310 4b d9 24 be 9b 55 14 3e c5 64 d2 bd 14 1e 8f 3c
       -0.16098516 0.14485781 -0.102731265 0.017470397
000320 b0 1e 62 bd fd 63 9c bd 0a 81 d2 bc 9c d4 97 bc
       -0.055205047 -0.07636259 -0.025696296 -0.018533997
000330 54 fb 21 3e a8 ae 11 3e 50 76 cd bd 49 e9 d5 3c
       0.1581853 0.14226782 -0.10032332 0.026112216
000340 d2 d2 68 bc 0d cf 14 3d eb f6 28 be ae 50 cc bc
       -0.01421042 0.03633027 -0.16500442 -0.024940815
000350 6b fd df bd 42 f3 22 3e 74 c8 91 3d 40 2c 8f 3d
       -0.109370075 0.15913108 0.071183115 0.06990862
000360 fa d1 4c 3d 29 ff 9d 3c f7 20 9e bd a5 9f 7f 3c
       0.050004937 0.019286709 -0.07721131 0.015602027
000370 2d 6a d7 3d fa 8a 5b bc 71 c2 0d 3e ae 6d 48 3d
       0.10518298 -0.013399834 0.13843705 0.048932724
000380 a6 d5 88 bc 97 7c 37 bd 3d 1b 63 be e2 92 28 3d
       -0.016703438 -0.044796553 -0.2217836 0.041155703
000390 32 f5 28 bd a7 e1 44 3d ae 7f 14 3d 8f 6f 05 3d
       -0.04124946 0.04806676 0.036254577 0.032577094
0003a0 1e 91 e5 b8 81 18 2c ba 95 a8 41 3e 1c 11 f9 bd
       -0.00010946601 -0.00065649307 0.18911965 -0.121614665
0003b0 a3 b9 02 be cd a0 f8 bc 70 65 4c bd 6e 0c d6 bd
       -0.12766127 -0.030350113 -0.049901426 -0.104515895
0003c0 5f ef 9c 3d a5 88 06 3e bc 79 a9 bc a6 03 b4 3b
       0.07662844 0.13138063 -0.02068793 0.005493599
0003d0 88 5c 0f bd 53 c0 d8 3c 0b e2 2f bd ff e1 b4 3d
       -0.035000354 0.026458895 -0.04294018 0.08832168
0003e0 70 53 72 3c f7 3c e1 bc 00 81 57 3d ce 67 01 3d
       0.014790401 -0.02749489 0.05261326 0.031593136
0003f0 8e 3a cd bd c4 fb 23 bd a7 e2 a7 bc 61 e2 9c 3b
       -0.10020934 -0.040035024 -0.020493818 0.0047877287

network_body.observation_encoder.processors.0.dense.0.bias f4 [256]
000000 d8 c9 fd 3b bb b8 49 3b 4d 7b 63 3c 38 de 85 bb
       0.007745009 0.0030780274 0.013884378 -0.0040853284
000010 9f 3f 73 3b c5 07 06 3c ca 13 62 bb 08 a3 75 3c
       0.0037116779 0.008180563 -0.0034496658 0.014992483
000020 a9 ea 5b 3c 72 b7 9d 3b cf c5 e1 3b d6 5d f5 3b
       0.013422647 0.004813128 0.0068900357 0.0074879928
000030 e5 e9 48 3c 37 af 10 bc 79 97 bf 3c 7a 4f 62 3a
       0.012262796 -0.008830837 0.023387657 0.0008633059
000040 3a db 0b 39 ef 8c 8c 3b 43 4e 5f 3b 61 06 36 3b
       0.00013337741 0.0042892615 0.0034073747 0.0027774798
000050 a5 40 8b 3c 22 af 22 bb 4c 50 43 3b 30 bc 4c 3c
       0.016998598 -0.0024823626 0.00298025 0.012496039
000060 6f 5d 55 3c d4 3d a6 3a b8 b9 87 bc c0 50 81 3c
       0.013022765 0.0012683221 -0.01656805 0.015785575
000070 a3 30 99 3c 76 1b 84 3c a4 ba b8 bb 95 c7 97 3b
       0.01869995 0.016126376 -0.0056374837 0.0046319463
000080 16 08 68 3c f7 55 16 3c fd 66 25 3c e5 76 85 3c
       0.014162084 0.009175769 0.010095355 0.016292045
000090 c6 ed d1 3b d7 2c 11 bc 00 7d 64 3b 48 00 5a b9
       0.0064065186 -0.008860788 0.0034864545 -0.00020790205
0000a0 ba d5 31 3c 05 e2 df 3b a9 77 3c 3c c2 65 3b 3c
       0.010854179 0.0068323635 0.011503139 0.011437835
0000b0 7b 70 40 3c 5a 9a 79 3c d3 07 be ba cd eb 50 3c
       0.011745567 0.015234554 -0.0014498181 0.012751532
0000c0 00 b8 9f 3c ab 28 2e 3c 3f 9f e7 bb 36 0a 52 3c
       0.019496918 0.010629813 -0.007068544 0.012819817
0000d0 0a 73 f0 3b 0a e4 14 bb 65 f4 fa ba ca 83 10 3c
       0.0073379325 -0.002271893 -0.0019146322 0.008820483
0000e0 5a aa 35 3b bc 06 09 3b 6c 57 a3 3c d7 8a 03 3b
       0.0027719946 0.0020908555 0.019939147 0.0020071769
0000f0 47 d6 6f 3c fa 70 59 3c 4a 25 59 3c dc 13 87 3b
       0.01463849 0.013271565 0.013253519 0.0041222405
000100 63 5d cd 3b 46 87 6a 3b f2 99 5b 3c 7e 31 1d bc
       0.006267236 0.0035786196 0.013403403 -0.009594319
000110 45 c6 36 bb d7 81 88 bb f1 a4 87 3c ff 6f 1d 3c
       -0.0027889174 -0.0041658687 0.016558142 0.0096092215
000120 0d 96 5b 3c c8 c5 21 3c a9 fa 4f 3c d5 fd 0c bc
       0.013402474 0.009873815 0.012694039 -0.00860544
000130 7c 7d 47 3c 65 be c6 3b e9 95 91 3c c7 25 4e 3c
       0.012175914 0.0060651773 0.017771678 0.012582249
000140 c2 99 76 3b e9 41 83 bc 34 9e 36 bc d7 0b e6 b9
       0.0037628268 -0.01602264 -0.011146117 -0.0004387784
000150 bc 5e 02 3c b7 1c 2d 3c 94 d2 8d 3b 03 6c a4 ba
       0.007957157 0.010565928 0.0043280814 -0.0012544397
000160 44 1c 15 3c b6 5a fd ba a8 ed 95 3b ad 54 26 3c
       0.009100977 -0.0019329402 0.00457545 0.010152024
000170 79 03 ed ba ad 18 50 bb b5 fa aa 3c f4 76 68 3c
       -0.00180827 -0.003175299 0.0208715 0.014188517
000180 3f 33 c1 bb 3a f4 07 3b b4 43 71 3c 0f 64 19 3b
       -0.0058960016 0.0020744936 0.014725614 0.0023405587
000190 5e ce 3a 3b b6 cb 39 3c f5 4e 0e 3c e1 b2 db 3b
       0.0028504352 0.011340072 0.008685817 0.0067046736
0001a0 dd a1 1a bb ca b6 c6 3b 1c 42 3d 3b de 69 9f 3b
       -0.0023595013 0.0060642706 0.0028878516 0.0048649153
0001b0 38 1b 0d 3b 87 bc cb ba 1b 67 96 ba f2 30 58 bb
       0.0021531116 -0.0015543856 -0.001147482 -0.0032988158
0001c0 fb e4 77 3b 03 20 a3 3a 8c bf 45 3c 03 cf 41 bc
       0.0037825692 0.0012445453 0.012069594 -0.011829141
0001d0 04 10 bb bb e0 3c 0e 3c ea fc 38 bc f6 d8 8a bb
       -0.0057086963 0.008681506 -0.011290768 -0.0042372895
0001e0 57 be bb 39 8f 7f b9 ba 86 3f e1 3a bd 94 1c 3c
       0.00035809234 -0.0014152395 0.0017185069 0.009556946
0001f0 93 ed 2c 3c d9 3d b1 b9 5b 33 0b 3c 96 ad d0 3b
       0.010554689 -0.0003380615 0.008496131 0.0063683493
000200 99 1a f7 3b fb e8 60 bc 62 ea 1d 3c f2 bc 05 3c
       0.0075410125 -0.013727422 0.009638401 0.008162724
000210 a0 bb c6 bb 51 89 b4 3b af 5d 86 ba 0b 5c dd 3a
       -0.006064847 0.0055095335 -0.0010251309 0.0016888393
000220 d5 78 89 3c 82 36 18 3c 1a 23 19 3c e3 71 88 3b
       0.01678125 0.009290339 0.009346748 0.004163967
000230 19 a3 a7 bb d8 0a 9a ba ba 21 e1 3a ca 82 40 3c
       -0.0051158783 -0.0011752499 0.0017176189 0.011749933
000240 36 bb 83 3b fa 00 33 3b 98 1c 1a b9 01 24 f1 3b
       0.00402012 0.0027313814 -0.00014697236 0.0073590283
000250 3d 11 67 3c da 33 31 bc 69 e1 ec bb 23 a7 56 ba
       0.014103231 -0.010815585 -0.0072290194 -0.00081883575
000260 a4 ec c9 3b d1 21 57 3b cf a6 90 3c 20 82 36 3c
       0.006162243 0.0032826553 0.017657666 0.011139423
000270 0f f5 ef 3b bc af 56 3c 87 5a 7c 3b 07 4b 92 3b
       0.0073229144 0.013103422 0.0038506107 0.0044645104
000280 df f1 99 3c 31 67 85 3c 84 79 b0 3b 03 df 43 bb
       0.018792091 0.016284557 0.0053855795 -0.0029887564
000290 fa 6f 04 3c 79 cf 56 bc 36 6d 3b 3c 06 21 dc ba
       0.008083338 -0.013110989 0.011439612 -0.001679451
0002a0 bb e5 44 bb bb 63 a0 3b de 26 44 bb 74 4f 08 bb
       -0.0030044157 0.0048947013 -0.0029930393 -0.002079931
0002b0 c8 7d 21 3c 62 63 ae ba 85 12 ad 3b 98 47 ab 3c
       0.009856649 -0.0013304765 0.0052817487 0.020908162
0002c0 08 08 aa 3b 17 4f 64 3c 22 cc 5f 3b e2 af 75 3b
       0.0051889457 0.013934872 0.0034148772 0.0037488868
0002d0 2e de 0b 3c 70 e9 3f bb bc 49 ed 3b 57 69 22 3a
       0.0085368585 -0.0029283427 0.007241456 0.00061955064
0002e0 d3 dc 01 3a 3d 86 cb 3a 49 9b 9e 3b 44 44 f4 3b
       0.0004953865 0.0015527677 0.004840289 0.007454427
0002f0 10 3e 2a 3c 45 71 d0 3b 2b 58 a4 3b 03 d4 92 3c
       0.010390773 0.006361159 0.0050153933 0.01792336
000300 80 3a 8d 3b 85 25 b5 3c 1a f7 a4 3c e9 99 c5 3b
       0.0043099523 0.022112617 0.020137358 0.0060303104
000310 60 46 95 3c 16 37 93 3b 7f 4c ac bb 6e 1b 08 bc
       0.018222034 0.0044926507 -0.0052581425 -0.008307321
000320 e6 76 b6 3b 46 34 73 3b 07 f0 89 ba b2 5f a2 ba
       0.005568373 0.0037110015 -0.0010523804 -0.0012388139
000330 81 3e 24 3a a4 96 3a 3b f9 03 b6 3b fd 85 7d 3c
       0.00062654173 0.0028471136 0.005554673 0.01547384
000340 26 b0 4b 3c 7e 7d 7a bb 3c ff 68 3c 72 6a 55 3b
       0.012432134 -0.0038221772 0.014221009 0.0032564667
000350 0e 72 40 3b 22 1b bd 3b e8 6c 8b 3c dd d2 28 3c
       0.0029364857 0.0057710567 0.017019704 0.01030418
000360 ba 65 a3 3b e2 8c c1 3b b7 cb 06 3b 39 99 2f 3c
       0.004986492 0.005906687 0.00205682 0.0107176835
000370 25 35 7f bb 1c c2 d2 3b 8c 0d 93 3b e8 94 16 3b
       -0.0038941589 0.006431831 0.004487699 0.0022976939
000380 e6 3d 80 b9 04 85 84 3c 67 55 d6 3a 4a ce be 3c
       -0.0002446018 0.016176708 0.0016352356 0.023291726
000390 fb 9f 20 3b 55 0b e1 3a 4a 37 07 3c ab cb d4 ba
       0.0024509418 0.0017169515 0.008252928 -0.0016235014
0003a0 b1 ba 09 3c 01 d3 3d 3a 1c 6a 8a bb 57 6b 5f 3b
       0.008406327 0.000724122 -0.004224075 0.003409108
0003b0 e7 9a 33 3c 2e 2b 6b 3c 47 4c 2e 3c ec ab 81 3c
       0.010962225 0.014353557 0.010638303 0.015829049
0003c0 c1 52 3f 3c 2e 0f 7a 3b db b0 6e 3c bb d5 81 3c
       0.011677445 0.003815602 0.014568533 0.015848985
0003d0 eb 0e 45 bb d0 f7 81 3b 96 b6 40 bc 51 b2 80 bb
       -0.0030068706 0.003966309 -0.011762282 -0.003927507
0003e0 fa 7a 35 3c c9 74 50 3c 8f ba c7 3a c6 0f 19 bb
       0.011076683 0.012723156 0.0015238094 -0.002335535
0003f0 e6 1c 4f 3c ff 11 c9 3b 11 75 46 3c d8 60 c8 3b
       0.012641167 0.0061361785 0.012112872 0.0061150603

network_body._body_endoder.seq_layers.0.weight f4 [256, 256]
000000 48 46 b5 3b a0 23 0e 3d 52 5e f3 3d c4 76 3f bd
       0.00553206 0.034701943 0.118832245 -0.046744123
000010 05 e5 07 3e fe d7 fc 3c 76 08 a1 3c 7b ec 89 3c
       0.13270958 0.030864712 0.019657355 0.016836395
000020 39 cd 86 3d 98 08 22 3d 2d 37 7d 3d 9e c6 d4 ba
       0.06582112 0.039558977 0.061820198 -0.0016233509
000030 de a8 c7 bd dc d8 52 bd a6 0c bb 3d 2c 40 27 bd
       -0.09749006 -0.051476344 0.09133272 -0.040832683
000040 f0 40 32 3d 3a 16 0e bd 4b c9 30 bd 19 fa be bc
       0.04351896 -0.034689166 -0.043160718 -0.023312615
000050 4f 98 26 3e 83 f6 fe bc 5c 10 b0 bd f3 78 80 bc
       0.16269039 -0.031123405 -0.0859687 -0.015682673
000060 93 ef c9 3d dc 79 74 bd 30 e8 8b 3b 45 bc 07 3d
       0.09860148 -0.059686527 0.0042696223 0.033138532
000070 c0 af b8 3d bd d3 fa 3c a5 04 c6 bc ee e4 30 be
       0.09017897 0.030618543 -0.024172137 -0.1727483
000080 3b e4 30 3d 9a 50 b4 bd 87 71 0c 3c 3f 08 a9 3d
       0.043186408 -0.08804436 0.008571989 0.08253526
000090 19 d7 56 bd a0 c3 c9 3c d6 0f 73 3d 08 27 07 bd
       -0.052451227 0.024629414 0.059341274 -0.032996207
0000a0 7d 6c 88 3d d9 d6 b5 3b 8b bf cf 3d 5c 31 ac bb
       0.066613175 0.0055492935 0.10143956 -0.0052549075
0000b0 16 b2 d4 bd 34 ec 91 3c 0a e9 0f 3c 27 e5 19 3d
       -0.1038553 0.017812826 0.008783588 0.037572052
0000c0 f8 fa 41 be 8c 29 17 3c 5b ae ad 3c 52 37 5b 3d
       -0.18943393 0.009226214 0.021201303 0.053519554
0000d0 70 23 09 3d 7e 28 b8 3b 08 62 39 bc 1c 7e 91 bc
       0.03348106 0.0056200614 -0.011314876 -0.017760329
0000e0 43 2a 9c 3b ba de 3e bd 6a 62 b8 3d 69 c2 94 bc
       0.00476578 -0.046599127 0.09003146 -0.018159108
0000f0 d5 28 ad 3c f3 8f c3 3d 8f de 7e bd a8 37 ee 3d
       0.021137634 0.095489405 -0.062223967 0.11631709
000100 b2 49 a9 3d bb c8 87 bd c4 ec 09 3e bc cd 0c bb
       0.082660094 -0.06630083 0.13469225 -0.0021484932
000110 92 79 f4 bc 75 87 c1 bd cd 38 99 bd 1a 42 8d bd
       -0.029843125 -0.094496645 -0.07481537 -0.068973735
000120 b6 80 6c 3d 4d 7a e5 3b b7 ef ef bd b1 fb 13 bd
       0.057739936 0.007003105 -0.11715644 -0.036128704
000130 a3 7b f9 3d e2 95 6f bd 3c 67 c8 bd b0 cd 50 bd
       0.12181785 -0.05849255 -0.097853154 -0.05097741
000140 4b f8 1d bd 26 5a 4e bc 64 65 8f 3d 50 44 32 bd
       -0.03856687 -0.012594735 0.070017606 -0.04352218
000150 47 82 c8 bc 10 e7 11 be 3b 95 c0 bd 6f 8d 0a bd
       -0.024476184 -0.142483 -0.094034635 -0.033826288
000160 d6 36 09 3e 50 53 fb bd 8d ea f3 bc 59 15 a5 3d
       0.13399825 -0.1227175 -0.029774928 0.08060712
000170 e9 18 08 3e 70 41 b6 3c eb 35 7f bd 6b 0e 36 3d
       0.13290752 0.022248 -0.06230728 0.044447344
000180 d9 35 82 bb e1 2b 38 3d 74 1a 64 bd 61 dc 6e bd
       -0.0039737043 0.04496372 -0.05568929 -0.05831564
000190 56 98 28 be 77 ef 75 3d 3d 59 aa bd 41 91 62 bc
       -0.16464362 0.060042825 -0.08317802 -0.013828577
0001a0 16 94 12 bd d5 87 e0 3b 36 07 98 bd 07 0b 65 bd
       -0.035785757 0.00685213 -0.074232504 -0.05591872
0001b0 ed 33 55 3d 3e 32 5c 3c 58 f3 10 3d e0 45 88 3b
       0.052051473 0.013439713 0.03538832 0.0041587204
0001c0 8e 64 8e bd 35 e4 57 bd e6 5e 74 bc a0 26 3d 3d
       -0.06952773 -0.05270787 -0.014915204 0.046179414
0001d0 7a c4 fb 3c c4 ee 85 3d 44 e0 8a 3d 91 dc ca bd
       0.030733336 0.065396816 0.067810565 -0.09905351
0001e0 4e 23 d1 ba 3e e0 11 be 22 05 08 bd 5d 06 27 bd
       -0.0015955956 -0.14245698 -0.03320802 -0.040777553
0001f0 71 80 0f 3e 20 63 cf bd a7 33 2e 3c 62 04 60 bd
       0.1401384 -0.101263285 0.010632432 -0.05469168
000200 8f 4e b2 bd 92 f0 64 bb b0 4d 41 bc b2 ac a6 bb
       -0.0870639 -0.003493343 -0.011798307 -0.005086505
000210 35 e8 bf bc dc 0e 82 bd e6 19 88 bc af 58 a0 bd
       -0.023426155 -0.063504905 -0.016613912 -0.07829415
000220 25 13 bd 3d e2 7f 28 3e 0e 68 a8 3c 8b 04 db 3c
       0.09232167 0.16455033 0.02055743 0.026735565
000230 fe 55 0d be 08 2c 9f 3d 4c a7 0b 3d 60 30 ac 3d
       -0.13802335 0.0777207 0.034095094 0.08407664
000240 93 5a 3a 3c 0a e5 0c 3c 2f 82 12 bd 19 9c 03 3c
       0.011374134 0.008599529 -0.035768684 0.008032822
000250 08 4b 44 3d bc 7f 93 3d 03 c4 ed bd 73 46 ba 3a
       0.047923118 0.07202098 -0.11609652 0.0014211669
000260 57 fc 37 39 73 65 c6 3c 56 27 e6 3c 47 64 3c bc
       0.00017546244 0.024218297 0.028094929 -0.011498517
000270 e0 59 02 be 6f a3 b5 3d de 66 d9 3b fa 74 2d 3d
       -0.12729597 0.08869063 0.006634577 0.042347886
000280 18 14 dc 3c 44 47 0f 3e ff 00 cf 3c 7d c0 6c bd
       0.02686505 0.1399203 0.02526903 -0.05780076
000290 0d 38 99 bb a9 05 8f bc a3 d0 b5 bc b4 f2 c7 bd
       -0.004675871 -0.017458754 -0.022194212 -0.09763089
0002a0 53 ff dd 3c a6 a4 57 3d 64 d2 06 bd a2 89 b2 3c
       0.027099287 0.052647255 -0.032915488 0.021794144
0002b0 59 84 20 3e 22 65 cb bd b0 2b 29 3d f6 50 f2 3d
       0.15675487 -0.09931399 0.04130143 0.11831848
0002c0 8e ec a6 bd bd c2 e0 3c 0d a1 e0 ba 95 00 8e bd
       -0.08150588 0.027436608 -0.0017137841 -0.06933705
0002d0 90 77 16 3c 60 7a 7f bd d3 1d 75 bd 87 4a 5a bd
       0.009183779 -0.062372565 -0.059842896 -0.05329373
0002e0 6d 92 b6 3d 8a b7 95 3b 49 81 23 bd 1c 7a 61 bd
       0.08914647 0.0045689987 -0.039918218 -0.055048093
0002f0 3c 0e 90 3d 44 23 97 bc c9 e7 8c bc a9 e3 f2 bb
       0.07033965 -0.018449433 -0.017200368 -0.007412393
000300 62 90 d9 3d 1c d5 09 3d 01 95 fe 3d b5 bb 80 bc
       0.10623242 0.033650503 0.12430764 -0.015714506
000310 bc ba 96 bb 6e 6a b3 bc 09 6b 43 3d 7d 02 55 3d
       -0.004599897 -0.021901336 0.0477095 0.052004326
000320 55 3e d8 bc 94 1a 86 3d 53 ae a8 bc fb f6 87 bd
       -0.02639691 0.06548038 -0.020590937 -0.06638905
000330 98 43 1a bd fe 45 ea bc ee 81 02 b9 1f 03 75 3d
       -0.03766212 -0.028597828 -0.00012446169 0.05981743
000340 ca 34 9d bc dd 00 a0 3d 9f 48 a9 bb e0 99 50 3d
       -0.01919021 0.07812665 -0.005166128 0.050927997
000350 f3 f5 61 3d 48 ce c1 3d 13 d4 93 3d ef 8e c3 3d
       0.055166196 0.09463173 0.07218184 0.09548747
000360 9b 6b f0 bd 1b 4d 05 3c c8 ea 0e bd 17 4c 7a 3d
       -0.11739274 0.008136059 -0.034891874 0.06110772
000370 3e 69 a4 3d 8d 00 a3 bd fc f3 f5 bc 76 9a 94 bd
       0.08027886 -0.079590894 -0.030023567 -0.072560236
000380 09 1c 13 3e a9 23 58 bd c6 41 4b 3d ef 4a dd 3d
       0.14366163 -0.052768383 0.049623273 0.10805308
000390 05 ab 8f 3b 6b a7 04 bd cb 3f f8 bc 3f b2 c2 3d
       0.004384401 -0.032386225 -0.030303856 0.09506654
0003a0 d6 26 9e bd 88 30 34 3c 32 34 b5 bd 9e b4 88 3d
       -0.07722251 0.010997899 -0.08847846 0.06675075
0003b0 9a 6c 04 be 1c 86 1a 3d 9c 15 70 bc 5f ee df bd
       -0.12932053 0.037725553 -0.01465359 -0.109341376
0003c0 51 1f ba bd 2a 65 e4 bc d5 af a8 bc 44 69 28 3d
       -0.090880044 -0.02788027 -0.020591656 0.041116014
0003d0 cc ad 56 bc 65 aa 91 bd 7d 41 be bb 3a 20 11 bd
       -0.01310296 -0.07112578 -0.0058061467 -0.035431124
0003e0 ef 43 f8 bd 78 ae a4 3c e6 11 e9 bc 02 86 d1 3d
       -0.12122332 0.020102724 -0.028450917 0.10230638
0003f0 50 db 80 bd 2e 3f 46 3c 67 9e 87 bc 1e ea bf bc
       -0.062918305 0.012100024 -0.016555024 -0.023427065

network_body._body_endoder.seq_layers.0.bias f4 [256]
000000 69 3f 78 3a 02 7c de b6 96 5e 5d b9 1e 02 06 bc
       0.0009469898 -6.630552e-06 -0.00021111438 -0.008179216
000010 b0 b2 84 3a 5b e9 65 3b 74 da f0 b8 48 cb b9 3b
       0.0010124054 0.0035081718 -0.00011484782 0.005669985
000020 83 d7 65 bb 1e 36 87 3c be 5a 1a 3c 1e 0a 14 3b
       -0.0035071082 0.016505297 0.009421049 0.0022589038
000030 29 36 6a 3b 9d 96 28 3c 46 39 5d 3b ed 64 c1 3a
       0.0035737848 0.010289815 0.0033756061 0.001475481
000040 f0 02 a4 3b b0 31 91 3b 9c 86 74 3b ab f4 ec ba
       0.005005233 0.004430972 0.0037311679 -0.0018078288
000050 33 d9 c5 3b 36 8b af bb 96 ee 48 3b 56 47 97 3b
       0.006037855 -0.0053571714 0.0030659786 0.004616658
000060 a3 16 4a 3c 37 e3 1e bb 46 cc 36 bc bd 59 9b 3b
       0.012334499 -0.0024244317 -0.011157101 0.0047409222
000070 89 ce d6 3a e9 d7 d3 3b 18 2f 39 3b b7 2d 34 bb
       0.0016388457 0.0064649475 0.002825683 -0.0027493068
000080 30 05 87 3a ef 9b 2f 3c 06 99 97 3b e7 c7 e1 3b
       0.0010301229 0.01071833 0.004626396 0.0068902853
000090 86 22 3a 3a 50 6e 32 3b ee 25 05 3c dc 87 9b 3a
       0.00071004813 0.0027226396 0.008126719 0.0011866051
0000a0 f0 48 73 3c 1e 75 db 3b ba 12 be bb ad c5 d8 bb
       0.014848933 0.006697311 -0.005800572 -0.0066153617
0000b0 82 c1 1d 3c 55 4e d0 3b 21 0d 12 bc ab a1 67 39
       0.009628655 0.006356994 -0.008914263 0.00022090103
0000c0 16 1d 6c bb bf 2e 44 3c 64 48 ee b9 71 b6 87 3b
       -0.0036028079 0.011974036 -0.00045448833 0.0041416218
0000d0 3c df 72 3a c2 e6 0a 3a 9a 79 d1 3b 42 da a0 3c
       0.0009264832 0.0005298668 0.00639267 0.019635323
0000e0 2f 5d 0e 3c cf 5e ac 3a 12 44 e8 3b d0 a3 1b 3c
       0.008689209 0.0013150814 0.0070881927 0.009499505
0000f0 b7 73 16 3c ed 57 7f bb c7 4a 66 3a 0a 9a 66 3a
       0.009182862 -0.003896232 0.00087849464 0.00087967573
000100 bf 16 d5 3b 22 a0 6a b9 3c 2c f0 ba 30 a7 0e 3c
       0.0065029557 -0.00022375633 -0.001832373 0.008706853
000110 64 af a7 3b ed 4d fe 3b 3c 4b 73 3b 42 6f 60 bb
       0.0051173437 0.0077607543 0.00371237 -0.0034246002
000120 39 22 28 bb 94 de d6 bb b0 a5 34 3c a9 f5 6c 3c
       -0.0025655164 -0.006557295 0.011025831 0.014462867
000130 b2 e5 ba ba a9 ee 22 bb 0b ff ea 3b 6a c1 a5 39
       -0.0014259128 -0.002486149 0.007171517 0.00031615357
000140 2d fe 3b 3c 1c 4e 92 3a ea 43 65 3b 23 4f 26 3b
       0.011474174 0.0011162194 0.0034983107 0.002537676
000150 a7 42 27 3b 04 ec dd bb 0d a8 87 3c 68 73 40 3c
       0.0025521906 -0.00677252 0.016559625 0.011746265
000160 fe 60 25 3a fb a1 37 bc 2b 0e b2 3a 77 06 48 3b
       0.00063087035 -0.011208053 0.0013584545 0.0030521431
000170 15 09 6d 3a 2c a4 b7 3b 7a 7b 55 3c 76 e4 01 3b
       0.0009042186 0.0056042876 0.013029927 0.0019820011
000180 c4 0b ed bb 1f 41 9f bb 3f 30 28 3b a4 03 e1 3b
       -0.0072340686 -0.004860058 0.0025663523 0.006866889
000190 93 e2 91 3c b3 d8 68 3a 5c d4 cd bb 48 ea e4 3b
       0.017808234 0.00088823884 -0.0062814187 0.0069859363
0001a0 f0 5d ea 3b 60 e5 9e b8 6f c7 1c 3c 35 b7 f9 bb
       0.0071523115 -7.5767515e-05 0.009569033 -0.007620717
0001b0 c9 d6 94 3b 81 72 79 3b 7a 38 9e 3a 0c 1b 4b 3b
       0.004542206 0.0038062634 0.0012071275 0.0030991463
0001c0 89 51 4c 3c 4a 7d b4 39 84 c7 0f 3a b1 2d 01 ba
       0.012470611 0.00034425623 0.0005484747 -0.0004927768
0001d0 70 8a 83 3a 84 3c 37 3b 6c c6 ed 3b 70 b9 30 3b
       0.0010035764 0.0027959654 0.0072563197 0.0026965998
0001e0 95 22 16 3c 02 26 5e 3b 0c f1 c4 3b 61 50 a4 3b
       0.009163518 0.0033897166 0.0060101803 0.0050144647
0001f0 4c 80 31 ba c5 29 32 3c 68 b1 8c 3b 56 3b 18 3c
       -0.0006771132 0.010874216 0.0042936094 0.009291491
000200 a8 8a f7 b9 13 af 01 3c e5 dd 9d bb e2 eb 71 3b
       -0.00047214818 0.007915276 -0.0048177117 0.0036914279
000210 c8 29 e4 3a 8c 0c d7 bb 8f 60 e6 bb 52 38 cd 39
       0.0017407471 -0.006562775 -0.0070305537 0.0003914261
000220 d9 5e 32 3c 3d f6 d8 3b 88 ad 4d b8 77 48 dc 3b
       0.010886871 0.0066211508 -4.9037422e-05 0.0067225057
000230 33 12 af 3a 84 a3 13 3c ba 9e 00 bb 68 cb 8a bb
       0.0013356864 0.009011153 -0.0019625858 -0.0042356737
000240 5c 69 19 ba 48 e7 d5 3b f4 99 dd 3b ab 4f c8 bb
       -0.00058521866 0.006527815 0.0067627374 -0.006113013
000250 a6 e1 69 bb 70 3e 02 3c 38 67 47 3b 7a 00 9a b9
       -0.0035687475 0.007949457 0.0030426513 -0.00029373524
000260 df 26 fa bb dd 8c 55 bc 93 1d 2b 3c 27 67 02 3c
       -0.0076340283 -0.013034073 0.010444063 0.007959164
000270 21 d6 27 ba 62 a2 68 3c 41 1d 8f bb f4 a0 d8 3b
       -0.0006402452 0.014198871 -0.004367501 0.006610984
000280 44 d7 73 3c 8d 95 16 3c c8 fa 15 3c 4c 70 e7 3b
       0.014882866 0.009190929 0.009154029 0.0070629474
000290 0c 99 9b 3b bc 6d 29 bb 45 0c f0 ba f0 f4 9e bb
       0.004748469 -0.002585276 -0.0018314203 -0.004850976
0002a0 9f a9 ae ba a4 55 a8 3b 7f c5 53 3c a9 ca d3 3b
       -0.0013325698 0.0051371623 0.012925505 0.006463368
0002b0 71 99 ac ba f2 12 b8 3b ac 03 8c 3b a8 fb ae b8
       -0.0013168288 0.005617493 0.0042728987 -8.343841e-05
0002c0 36 2b 52 bb 84 a5 80 3a 01 5e 63 bb 32 5a 48 3c
       -0.0032069213 0.0009814953 -0.0034693482 0.0122285355
0002d0 ce 08 e0 3b 09 9b 5f ba ef cb 47 3c e3 a0 1e 3c
       0.006836987 -0.0008529877 0.012194618 0.009681913
0002e0 e1 e1 5b 3b f3 dc 8d 3c 1f 04 31 3c 70 14 6d 3a
       0.0033551382 0.01731727 0.010804205 0.0009043878
0002f0 2f 86 aa 3b ed 8b db 3b 5e aa cf 3b 86 d3 8f 3b
       0.005203984 0.00670003 0.006337448 0.004389229
000300 b6 13 89 3b 8d aa 4c b9 0c 1b d6 3a 0b df 6c 3b
       0.004183258 -0.00019518491 0.0016334965 0.0036143686
000310 98 b8 0a 3a 58 84 4b 3b 0c ed 34 3c df 45 8f 3c
       0.0005291789 0.0031054225 0.0110428445 0.017489372
000320 e8 89 09 3c e4 b3 2b 3a 21 c3 ac 3b 9c aa ed 3b
       0.008394696 0.0006549938 0.0052722846 0.0072530042
000330 2a 07 1a 3c 37 b9 e5 3b 3d f3 3a 3b b5 ce 2c 3c
       0.009401122 0.0070106047 0.002852633 0.01054733
000340 b5 6e b3 bb e8 88 d0 bb 78 3f 5d 3a 8d 8b 94 bb
       -0.005475844 -0.0063639767 0.00084399385 -0.0045332373
000350 59 a5 10 3c aa 95 7d 3b b4 5d d3 3b 87 1a b4 3a
       0.008828484 0.0038693943 0.0064503793 0.0013740816
000360 08 f7 a7 3b b4 c3 30 bb c3 52 99 bb 0b c4 b1 3b
       0.005125884 -0.0026972117 -0.0046790554 0.0054249815
000370 52 f2 d3 3b 5e 04 11 bc 2d 95 02 3c 70 04 d4 ba
       0.006468096 -0.008851139 0.007970137 -0.0016175639
000380 67 58 f8 3b d7 cf 82 b8 20 15 86 3b 0e f1 d5 3b
       0.0075788978 -6.237596e-05 0.0040918738 0.00652898
000390 12 6b d3 ba 9f 43 da bb 97 d8 21 b9 24 8d 63 bb
       -0.0016129932 -0.006660893 -0.00015434842 -0.0034721578
0003a0 93 85 98 3b 04 d2 03 3a f0 47 14 3c 12 e7 8e 3b
       0.004654595 0.0005028548 0.009050354 0.004361042
0003b0 75 de a4 3b 26 ab 7a 3b c3 ab c4 3b 1a 18 6c 3a
       0.0050314018 0.0038248985 0.006001921 0.0009006277
0003c0 f9 8c 37 3c af e4 48 bb 4a e5 8b bb d6 84 33 3b
       0.011203044 -0.0030653884 -0.0042692767 0.0027392409
0003d0 3e 39 f6 3b a9 54 1f 3c d2 a2 4c 3c c0 71 17 3c
       0.007514148 0.009724774 0.012489991 0.009243429
0003e0 20 08 16 bb 01 70 c0 b9 5e 56 05 bb b5 e9 25 3b
       -0.0022893026 -0.00036704543 -0.0020345668 0.0025316302
0003f0 b0 a1 37 3b c3 7c 1d bb bc 9c ee bb 21 59 23 bb
       0.0028019957 -0.0024030663 -0.007281868 -0.002492495
